model.pth (torch, 1183 bytes, 1 tensors)

linear.weight f4 [1, 24]
000000 cd 79 56 3c a1 80 13 bc c4 86 a1 bc 3d 93 46 3b
       0.013090563 -0.0090028355 -0.019717582 0.0030300163
000010 7b fb d6 bc ee d8 69 bd 36 6e 8a 3c 1e 01 54 3d
       -0.026242962 -0.057091646 0.016898256 0.051758878
000020 ee a4 3b 3b cc 02 99 3d 3a e4 4d bd 32 87 13 bd
       0.0028632241 0.074712366 -0.050266482 -0.036017604
000030 2f ce a0 bb 21 c0 88 3c 20 d1 0d 3b 3d c4 6f bb
       -0.0049073915 0.016693177 0.002163954 -0.0036585473
000040 5f 77 ef 3c 77 6f 1b 3c 63 ea 33 3d 7d 0a 7d 3c
       0.029231725 0.0094870245 0.0439247 0.015444395
000050 00 4b a1 3c 7c 97 99 bd 55 b9 18 bd 0b 00 8e bc
       0.019689083 -0.074995965 -0.03728612 -0.017334005
